squat_recognition.onnx (onnx, 133649 bytes, 8 tensors)

StatefulPartitionedCall/sequential_1/dense_3_1/Cast/ReadVariableOp:0 f4 [32, 10]
-0.25462076 -0.2547065 0.36474147 0.16385229 0.12861459 -0.26397744 -0.022621403 0.2962971
-0.16534866 -0.2368647 -0.035085052 0.22708763 -0.22779737 -0.23442389 -0.269346 0.29013136
-0.22047055 -0.11196811 -0.17912365 0.041424967 -0.17692511 0.31085932 0.20599592 -0.094365016
0.2939548 -0.07587348 -0.039143205 -0.19691038 -0.0013095788 -0.13726792 -0.31016627 -0.13831125
0.03254804 -0.10635145 -0.21636489 -0.07097072 0.1828439 0.22854692 0.34388205 0.074328035
0.29131135 0.31541568 -0.29320467 -0.27942127 -0.31021813 -0.11924413 -0.25243086 0.18770967
-0.12081115 0.37447134 -0.08098196 0.06891835 -0.11717016 -0.22936597 0.24808867 -0.1659602
-0.24964477 0.30909583 0.11326249 0.0141001055 -0.11268623 0.23769674 0.23585226 -0.21396239
0.14492378 -0.0154501535 -0.1385398 0.12115598 -0.35979086 -0.0982417 -0.16462667 0.2940437
0.13460006 0.37475002 -0.16328058 -0.25655076 -0.3108536 0.24138696 -0.029453617 0.36136836
0.22755484 -0.20802231 0.069787495 0.4430632 -0.16324486 -0.01223599 0.15904461 -0.3969355
0.25147447 0.16608071 0.104613036 -0.12505028 0.20674653 -0.008954248 -0.2553023 -0.3352345
0.12175777 -0.36511344 -0.52407426 0.10963828 -0.28869313 -0.33964992 -0.26146945 0.1842172
-0.037670255 0.3565396 0.17966044 -0.1534007 -0.05915646 -0.30496508 -0.340277 -0.12443921
-0.16200851 -0.2079107 0.118878424 0.04916871 0.120951906 -0.29618913 0.2087058 -0.18508422
-0.09088944 -0.04025163 -0.2840443 -0.12997685 -0.35594922 -0.22941013 0.3663062 0.26252684
0.25769535 0.030716065 0.30306128 0.02406506 -0.28410265 -0.13146539 0.3337516 0.21274354
0.049092494 -0.015475014 -0.34682345 -0.12582615 -0.009380888 0.27292553 0.2360362 0.12553981
-0.2552774 0.12592955 0.076242775 -0.357498 0.23849678 -0.14025766 -0.083830446 -0.14203395
-0.17477487 -0.16204025 0.16120479 0.27492312 -0.094883196 -0.3403889 -0.19379483 0.3163567
-0.19431262 -0.26556927 0.16470058 0.06626061 0.18448271 0.26209036 0.37163758 0.2550138
-0.054685436 -0.19095986 0.19472583 0.07463854 0.27355057 0.077160716 -0.26072636 -0.02109044
-0.16480565 -0.42880878 -0.42911252 0.15241289 0.47753742 -0.02540675 -0.41031894 0.060710132
-0.025118634 0.22355983 -0.46281555 -0.22410613 0.2687935 0.2847743 0.0050506047 0.18136697
0.34803975 0.31805465 -0.2568022 -0.034446105 -0.35667264 -0.3063697 -0.3052221 -0.14889322
-0.36914423 0.062819466 -0.3474433 -0.43480542 0.084781505 -0.188523 -0.44768757 -0.42692995
-0.0866816 -0.10845239 -0.16609831 -0.1551364 -0.1461733 0.1623342 -0.232226 -0.14947674
-0.38471928 -0.19153339 0.288383 0.101961225 -0.32501256 0.3724415 0.34276333 -0.13888668
-0.026535865 -0.44318542 -0.014019195 0.33165935 0.057982635 -0.31668887 -0.09218822 0.2462584
0.29704207 -0.31624165 0.25891232 0.016831342 -0.33269536 -0.15029344 0.26151952 -0.17953007
0.17666917 -0.048569944 0.26939055 -0.21129356 -0.27132353 -0.16265093 -0.43382728 0.27772003
0.37136516 -0.045127526 -0.00783528 -0.03158981 0.13458744 -0.042248923 -0.15944077 0.15425687
00000000: a75d 82be e468 82be 65bf ba3e e5c8 273e
00000010: 8bb3 033e 0d28 87be 8550 b9bc 41b4 973e
00000020: 2951 29be a98c 72be 58b5 0fbd a989 683e
00000030: b743 69be d10c 70be b8e7 89be 198c 943e
00000040: 08c3 61be 894f e5bd 316c 37be 3aad 293d
00000050: db2b 35be f428 9f3e 98f0 523e 7242 c1bd
00000060: 3e81 963e 8e63 9bbd a054 20bd e0a2 49be
00000070: 2ca6 abba f68f 0cbe 1dce 9ebe 77a1 0dbe
00000080: 1851 053d cace d9bd c28e 5dbe 1959 91bd
00000090: 6e3b 3b3e 3408 6a3e 4f11 b03e 4c39 983d
000000a0: c326 953e 2a7e a13e ec1e 96be 4e10 8fbe
000000b0: e9d4 9ebe 4436 f4bd 9e3e 81be f736 403e
000000c0: d66b f7bd b5ba bf3e dfd9 a5bd 1025 8d3d
000000d0: e9f6 efbd eade 6abe f50a 7e3e 78f1 29be
000000e0: e1a2 7fbe cf41 9e3e 2af6 e73d 2104 673c
000000f0: 0ac8 e6bd c666 733e 4183 713e f518 5bbe
00000100: e666 143e a422 7dbc 61dd 0dbe a020 f83d
00000110: 8236 b8be f232 c9bd e593 28be e58c 963e
00000120: 99d4 093e 3cdf bf3e 0633 27be 9f5a 83be
00000130: 3428 9fbe 252e 773e b648 f1bc 4605 b93e
00000140: 2304 693e cd03 55be bfec 8e3d 2ed9 e23e
00000150: a929 27be 7679 48bc 97dc 223e 213b cbbe
00000160: 43c1 803e 1011 2a3e 5c3f d63d 2e0d 00be
00000170: 5db5 533e d7b4 12bc fcb6 82be dba3 abbe
00000180: 235c f93d 26f0 babe bb29 06bf 098a e03d
00000190: 96cf 93be 98e6 adbe 53df 85be 6fa3 3c3e
000001a0: 204c 1abd 5c8c b63e e8f8 373e 1315 1dbe
000001b0: 0b4e 72bd 6224 9cbe c938 aebe fcd9 febd
000001c0: 8fe5 25be 8be6 54be 8876 f33d 2165 493d
000001d0: a2b5 f73d 1aa6 97be f9b6 553e b886 3dbe
000001e0: 3e24 babd e5de 24bd 416e 91be a718 05be
000001f0: fa3e b6be 7dea 6abe 7c8c bb3e eb69 863e
00000200: a5f0 833e 42a0 fb3c d92a 9b3e 1724 c53c
00000210: e775 91be dd9e 06be 7de1 aa3e 71d9 593e
00000220: 3615 493d ea8a 7dbc d892 b1be 92d8 00be
00000230: 4cb2 19bc e5bc 8b3e 79b3 713e 828d 003e
00000240: b8b3 82be adf3 003e 2c25 9c3d fa09 b7be
00000250: 8038 743e b49f 0fbe 4caf abbd 5971 11be
00000260: 2ff8 32be e1ed 25be de12 253e b9c2 8c3e
00000270: 1f52 c2bd 7447 aebe 2772 46be 81f9 a13e
00000280: e3f9 46be b2f8 87be 45a7 283e a5b3 873d
00000290: 09e9 3c3e b530 863e 4847 be3e 2b91 823e
000002a0: d6fd 5fbd fb8a 43be 3566 473e 17dc 983d
000002b0: d20e 8c3e 7006 9e3d ed7d 85be dcc5 acbc
000002c0: d0c2 28be d38c dbbe a3b4 dbbe 2012 1c3e
000002d0: c97f f43e d121 d0bc 5315 d2be 30ab 783d
000002e0: 98c5 cdbc deec 643e 29f6 ecbe 147c 65be
000002f0: 4d9f 893e f0cd 913e 8b7f a53b 43b8 393e
00000300: 4432 b23e 0fd8 a23e 947b 83be 5c17 0dbd
00000310: cc9d b6be 7ddc 9cbe 1246 9cbe 7777 18be
00000320: 7900 bdbe 7ea7 803d 17e4 b1be d19e debe
00000330: eda1 ad3d 2c0c 41be 4e37 e5be 9096 dabe
00000340: 1f86 b1bd 491c debd ad15 2abe 14dc 1ebe
00000350: 74ae 15be f03a 263e a7cc 6dbe 6e10 19be
00000360: edf9 c4be 5421 44be f0a6 933e 0cd1 d03d
00000370: 0c68 a6be a7b0 be3e ad7e af3e 4f38 0ebe
00000380: be61 d9bc 33e9 e2be c4b0 65bc 41cf a93e
00000390: 337f 6d3d 0b25 a2be 2dcd bcbd 292b 7c3e
000003a0: e615 983e 6dea a1be 2890 843e e2e1 893c
000003b0: 0c57 aabe 86e6 19be e3e5 853e bbd6 37be
000003c0: c3e8 343e 47f1 46bd 8fed 893e 575d 58be
000003d0: ebea 8abe f78d 26be 9c1e debe 5231 8e3e
000003e0: 9323 be3e a4d7 38bd 8c5f 00bc 5164 01bd
000003f0: 4ad1 093e 350d 2dbd 7144 23be 83f5 1d3e

StatefulPartitionedCall/sequential_1/dense_3_1/BiasAdd/ReadVariableOp:0 f4 [10]
0.021798762 0.017747706 -0.06237203 0.082873955 -0.005515678 -0.064006045 -0.0696249 -0.020546576
0.043150034 0.0066367825
00000000: 5193 b23c a363 913c d079 7fbd d2b9 a93d
00000010: dcbc b4bb 9a15 83bd 8097 8ebd 4b51 a8bc
00000020: 17be 303d 5e79 d93b

StatefulPartitionedCall/sequential_1/dense_2_1/Cast/ReadVariableOp:0 f4 [64, 32]
-0.0407863 0.13070804 0.03497561 0.26889142 0.013793655 0.14174396 0.028749816 -0.18709867
-0.097952 -0.15121761 -0.15299997 -0.16058904 -0.10167053 0.03904302 0.15995508 -0.3012485
-0.025600472 0.20321512 0.070258856 0.086287126 -0.1889736 0.22979403 0.24596582 0.08068212
0.38274652 0.03852465 -0.036547802 0.22558123 0.2656337 0.11463068 0.101976 0.08141344
-0.045215294 0.10180035 0.05658564 0.03651321 0.19967575 0.17102861 0.30063352 0.27939832
0.09608056 0.23041667 -0.23733343 -0.3340814 -0.20747116 0.22159618 -0.24318063 -0.19697925
-0.20974863 0.32213488 -0.13086058 0.14004779 -0.122226134 0.097625405 -0.1295748 0.19388996
0.15218228 -0.21360363 -0.02857196 -0.18797578 -0.19506133 -0.058429528 -0.08682363 -0.05861691
0.042380944 0.025361525 -0.1446038 -0.06356232 -0.101822674 -0.12203348 0.1590301 0.19651662
0.1537329 -0.007137615 -0.09009103 0.16281752 0.06380128 -0.20659934 0.20698436 0.2813448
0.060985345 0.0011606482 0.23696722 -0.0019584466 0.18397686 -0.071915075 0.1548148 0.29777232
-0.073723085 0.27599892 -0.013138976 -0.099393584 0.22349294 0.029940734 -0.030253155 -0.13672684
0.06940462 0.1856294 0.078522645 -0.08654079 0.021140939 0.101516366 -0.088420846 -0.18265705
0.09330928 -0.11371866 0.18940987 0.1532241 -0.06701118 -0.106734626 -0.14316124 -0.22983958
-0.17619799 -0.027253214 -0.21469931 0.052899104 -0.19073716 0.053359017 0.2477788 0.26837784
0.15599312 -0.20643476 0.122623414 0.016551163 -0.2538501 0.14538954 0.13552883 -0.23170696
-0.105481766 -0.20992284 0.05884042 -0.11392737 0.24515261 0.10355847 0.14376485 0.12856016
-0.13644058 0.21745014 0.19784628 0.040191136 0.35572478 -0.15927926 0.08440174 -0.025876949
0.22039406 -0.16257799 -0.15835868 -0.06024609 0.17425014 -0.16098405 0.15031146 -0.11275377
0.010153276 -0.08328631 0.24834672 -0.10200807 0.20218226 0.11138142 -0.12870267 0.050022744
0.08804493 -0.012812418 -0.0046763443 0.1750702 -0.2636068 0.13109544 -0.0098649105 -0.2039904
0.10489122 0.21812296 0.06400276 0.33024707 -0.19121352 0.22326621 -0.18056451 -0.046987947
-0.05443017 0.087281525 -0.22050083 -0.04382817 0.15867892 0.13191605 -0.1113659 0.1552819
-0.08573035 -0.027752716 -0.075388424 -0.03387266 -0.26077378 -0.1860566 0.047293372 -0.085551284
-0.17075902 -0.0441216 -0.16699483 -0.13786598 -0.12193029 -0.101043016 0.17063 -0.16935448
0.07226946 0.032962523 0.1339498 0.20812084 -0.0383048 -0.022280319 -0.21653295 0.068696454
-0.1589898 0.15327464 0.16984586 0.21867974 0.010177205 0.14781795 0.048612237 0.033615127
0.09805326 0.16234057 -0.046052106 -0.045574818 -0.10798512 0.1610814 0.07785824 -0.00510621
0.19621901 0.08127613 0.22522134 -0.029681992 -0.030661447 0.236798 0.20343772 -0.15334187
0.16453883 -0.17366067 0.20045452 0.15929687 0.049207073 0.111968204 0.082321845 -0.2052491
-0.032345913 -0.21099904 -0.015343762 -0.27337784 0.16287564 -0.055557452 0.053606395 0.12425419
-0.00081470615 -0.25690028 0.051827155 -0.035190124 -0.06770376 0.035893355 -0.08281805 0.19407587
00000000: 890f 27bd 54d8 053e 9642 0f3d 23ac 893e
00000010: c8fe 613c 5425 113e bc84 eb3c cb96 3fbe
00000020: 0f9b c8bd cad8 1abe 06ac 1cbe 7471 24be
00000030: a438 d0bd 93eb 1f3d 44cb 233e 3e3d 9abe
00000040: 15b8 d1bc a017 503e e0e3 8f3d 4eb7 b03d
00000050: 4c82 41be 204f 6b3e 77de 7b3e ab3c a53d
00000060: 5af7 c33e 06cc 1d3d 26b3 15bd c4fe 663e
00000070: 2401 883e 7dc3 ea3d cbd8 d03d 17bc a63d
00000080: ac33 39bd b47c d03d 58c6 673d e08e 153d
00000090: cd77 4c3e 2022 2f3e a3ec 993e 4c0d 8f3e
000000a0: e2c5 c43d 59f2 6b3e 8907 73be b80c abbe
000000b0: 5273 54be 1cea 623e 5804 79be eeb4 49be
000000c0: 58c8 56be ddee a43e 5100 06be b068 0f3e
000000d0: b251 fabd d4ef c73d 42af 04be 178b 463e
000000e0: acd5 1b3e e9ba 5abe be0f eabc b97c 40be
000000f0: 28be 47be cd53 6fbd 96d0 b1bd 4918 70bd
00000100: a497 2d3d f9c2 cf3c 0513 14be f62c 82bd
00000110: 6888 d0bd b0ec f9bd c9d8 223e a73b 493e
00000120: 286c 1d3e a7e2 e9bb a581 b8bd a3b9 263e
00000130: 3faa 823d c78e 53be b5f3 533e 6d0c 903e
00000140: c5cb 793d e420 983a 89a7 723e 4859 00bb
00000150: 6e64 3c3e 3648 93bd c587 1e3e 9d75 983e
00000160: 21fc 96bd bb4f 8d3e dc44 57bc dd8e cbbd
00000170: 55db 643e 4546 f53c 77d5 f7bc 1f02 0cbe
00000180: 0224 8e3d a215 3e3e 7bd0 a03d 4c3c b1bd
00000190: c32f ad3c d0e7 cf3d fd15 b5bd 730a 3bbe
000001a0: f018 bf3d 54e5 e8bd a9f4 413e c7e6 1c3e
000001b0: 283d 89bd af97 dabd dc98 12be 115b 6bbe
000001c0: 3f6d 34be 2242 dfbc 23da 5bbe bbac 583d
000001d0: 9a50 43be fc8e 5a3d bab9 7d3e d268 893e
000001e0: a9bc 1f3e a263 53be fc21 fb3d 4e96 873c
000001f0: a4f8 81be ffe0 143e 12c8 0a3e 9744 6dbe
00000200: d306 d8bd 03f6 56be a702 713d c152 e9bd
00000210: 4909 7b3e 7716 d43d 1837 133e 46a5 033e
00000220: 14b7 0bbe 40ab 5e3e 3798 4a3e 769f 243d
00000230: 8f21 b63e 1a1a 23be d2da ac3d e5fb d3bc
00000240: fbae 613e d87a 26be c728 22be 9bc4 76bd
00000250: a16e 323e 01d9 24be 3feb 193e 73eb e6bd
00000260: ed59 263c 0392 aabd 9a4e 7e3e 9be9 d0bd
00000270: de08 4f3e f11b e43d a2ca 03be a6e4 4c3d
00000280: e650 b43d 2deb 51bc 053c 99bb 9a45 333e
00000290: 78f7 86be e23d 063e 6fa0 21bc dce2 50be
000002a0: 35d1 d63d a05b 5f3e e113 833d 2516 a93e
000002b0: 7acd 43be e69f 643e e7e5 38be 6f76 40bd
000002c0: 2cf2 5ebd a8c0 b23d f8ca 61be 2b85 33bd
000002d0: ba7c 223e 0015 073e ce13 e4bd 3802 1f3e
000002e0: 6593 afbd aa59 e3bc 3f65 9abd 0fbe 0abd
000002f0: 2484 85be 9f85 3ebe b2b6 413d 8335 afbd
00000300: 74db 2ebe dab8 34bd b100 2bbe bd2c 0dbe
00000310: 96b6 f9bd a4ef cebd a1b9 2e3e 436b 2dbe
00000320: 0302 943d b603 073d 232a 093e a11d 553e
00000330: 7ee5 1cbd 3785 b6bc d0ba 5dbe bab0 8c3d
00000340: 39ce 22be 07f4 1c3e 13ec 2d3e 95ed 5f3e
00000350: 4bbe 263c 975d 173e a01d 473d 04b0 093d
00000360: 26d0 c83d 9b3c 263e 22a1 3cbd a9ac 3abd
00000370: 4d27 ddbd 86f2 243e 2474 9f3d fe51 a7bb
00000380: a3ed 483e 1a74 a63d 6ca0 663e a627 f3bc
00000390: b72d fbbc 2d7b 723e fa51 503e a705 1dbe
000003a0: de7c 283e 1ad4 31be f343 4d3e b81e 233e
000003b0: 5b8d 493d 964f e53d 5b98 a83d d22c 52be
000003c0: 267d 04bd 2210 58be 6764 7bbc 2ef8 8bbe
000003d0: dfc8 263e 3690 63bd 6192 5b3d fb78 fe3d
000003e0: 0192 55ba 6f88 83be b648 543d 8523 10bd
000003f0: 45a8 8abd e904 133d 839c a9bd d3bb 463e

StatefulPartitionedCall/sequential_1/dense_2_1/BiasAdd/ReadVariableOp:0 f4 [32]
0.04958978 -0.001989209 -0.028383594 0.0005763227 0.053981412 -0.022782285 0.016608223 0.088104516
0.084084794 0.04935226 -0.0149780465 0.029627535 0.07948109 -0.016153371 -0.011560615 0.030182201
-0.059934285 0.089050435 0.13365197 0.0722852 0.040613994 0.099883236 0.04833568 0.008543862
0.052320726 -0.0018948459 0.039183408 0.14369608 -0.02336178 0.07518006 0.019662576 0.061654914
00000000: a71e 4b3d 645d 02bb b684 e8bc 5d14 173a
00000010: 9d1b 5d3d eaa1 babc f80d 883c 2470 b43d
00000020: a634 ac3d 9825 4a3d 7b66 75bc 72b5 f23c
00000030: fbc6 a23d 1354 84bc bc68 3dbc aa40 f73c
00000040: a77d 75bd 1360 b63d 10dc 083e 430a 943d
00000050: dc5a 263d 958f cc3d a2fb 453d 8efb 0b3c
00000060: 424e 563d 7a5c f8ba c87e 203d 1125 133e
00000070: 3461 bfbc 01f8 993d 6913 a13c dd89 7c3d

StatefulPartitionedCall/sequential_1/dense_1_2/Cast/ReadVariableOp:0 f4 [128, 64]
0.09261597 0.04950244 0.033516616 0.020500744 -0.024948336 0.19658151 0.09559134 -0.0076049
0.1323244 -0.09072298 -0.03285523 -0.122336954 0.005243283 0.075592004 -0.024116427 -0.23735324
-0.032962907 -0.122586906 -0.06334322 0.07393176 0.15756375 0.13384038 0.12819704 -0.098760866
0.09904205 0.031086426 -0.09435749 0.07748007 0.11088817 0.212012 0.12666745 -0.24025804
-0.119166024 -0.16536388 -0.1396603 0.010439849 -0.19768114 -0.044870663 0.043848637 0.031347048
0.14684655 0.08881298 -0.1039307 0.20949276 0.12580217 0.12196126 -0.23973875 -0.021859962
0.25073305 0.16357987 0.046429668 0.06280726 -0.105718635 -0.04819515 0.16297944 0.11343496
-0.05857601 0.16268283 -0.098190315 0.09525243 -0.12442968 0.13425337 -0.11465505 0.038181916
0.12996969 -0.16995461 -0.13936107 -0.008008781 0.00950318 0.05299313 -0.07602531 0.08735915
-0.08674315 0.00075312064 0.0133997565 0.123403184 0.10343714 -0.0719398 0.10038286 -0.123403616
-0.04708195 -0.11739336 -0.0033957332 -0.09190704 -0.044653278 0.0033110837 0.012891838 -0.010805608
0.1508064 -0.11154033 -0.16588448 -0.05033425 -0.12029676 -0.22453836 -0.07881802 -0.0154685825
-0.06457746 0.15704937 0.11308598 -0.1155045 -0.17032552 0.081051655 -0.1048802 0.09259003
-0.04007747 0.1477369 0.015129146 -0.18469158 -0.17410265 -0.06731389 0.06517093 -0.13618955
-0.092497624 0.14710942 -0.09660715 0.14923324 -0.06816798 0.03987842 0.20436399 -0.054268844
-0.08048081 -0.012486741 0.03314156 0.03041671 -0.03241925 0.021114882 0.056112655 -0.14567411
-0.0386025 0.081003234 -0.12158226 -0.17324412 -0.007631894 0.035059903 -0.20193727 0.10594946
0.15296888 -0.19033894 -0.05363422 -0.10067107 0.05154574 -0.043196294 0.097310156 -0.024747536
0.005930903 -0.0770876 -0.22239123 0.014259933 0.17312948 0.10083035 0.118214026 -0.14194167
-0.0049360124 0.020893151 -0.04586677 0.096189424 -0.22661667 -0.10251547 0.18248236 -0.18044008
-0.13118723 0.05095086 -0.031398606 -0.0703756 -0.038123034 0.17658797 0.13300724 0.14516729
0.035911925 -0.1446258 0.123663686 -0.22184898 0.051283218 0.04976674 0.22615212 -0.030222338
-0.14022322 -0.15054503 -0.0544682 0.18125132 -0.16500768 -0.06452832 -0.03870536 0.064188085
-0.038416717 0.07088753 -0.17956609 -0.07939932 0.051550273 -0.14689127 0.038936704 -0.16760665
-0.16351183 -0.0049329987 0.19606988 -0.022821262 0.08518614 0.05154439 0.12669341 0.1797607
-0.06621018 -0.0037394522 -0.020211937 -0.042858973 0.035639603 0.09201433 -0.1409074 -0.12853517
-0.015006359 -0.14731726 0.064860344 -0.028525906 0.20599218 0.09007548 -0.07874511 0.026531992
-0.13451384 0.17140664 0.034981284 -0.042282317 0.10516042 -0.06536154 -0.12746403 0.059848893
-0.10385445 0.045080133 0.025876934 -0.22188841 -0.033589717 0.23283763 0.20591316 -0.19440258
0.035899412 0.15026568 0.1301434 0.24445967 -0.08716045 -0.13981953 -0.0046578534 0.07170966
-0.012812707 -0.02065448 -0.022878109 -0.049213503 0.07218399 -0.061505754 0.13277668 0.056776315
-0.18088432 0.13715604 -0.02234062 -0.12368727 0.12494025 0.12455992 -0.13144764 -0.18489759
00000000: 71ad bd3d 12c3 4a3d b848 093d 2df1 a73c
00000010: 7460 ccbc aa4c 493e 64c5 c33d 8632 f9bb
00000020: 0c80 073e f8cc b9bd 3593 06bd cc8b fabd
00000030: d9cf ab3b fbcf 9a3d d08f c5bc ba0c 73be
00000040: 1d04 07bd d80e fbbd 17ba 81bd 8969 973d
00000050: 6458 213e 740d 093e 1646 033e 2343 cabd
00000060: 8fd6 ca3d f6a8 fe3c 803e c1bd dfad 9e3d
00000070: 5619 e33d ac19 593e 1db5 013e 3406 76be
00000080: 510d f4bd 2655 29be 1c03 0fbe e70b 2b3c
00000090: ed6c 4abe 4dca 37bd a19a 333d c365 003d
000000a0: f15e 163e 94e3 b53d 9ed9 d4bd 4585 563e
000000b0: 49d2 003e d3c6 f93d 137e 75be aa13 b3bc
000000c0: 1560 803e 7b81 273e 092d 3e3d 18a1 803d
000000d0: 0383 d8bd 4768 45bd 15e4 263e 9750 e83d
000000e0: 66ed 6fbd 5496 263e 0118 c9bd b513 c33d
000000f0: fdd4 febd b779 093e 44d0 eabd a464 1c3d
00000100: c616 053e 9508 2ebe abb4 0ebe 4337 03bc
00000110: 3ab3 1b3c 530f 593d 28b3 9bbd 5be9 b23d
00000120: 65a6 b1bd 126d 453a a78a 5b3c cfba fc3d
00000130: dad6 d33d 2d55 93bd 8795 cd3d 09bb fcbd
00000140: 01d9 40bd ee6b f0bd f38a 5ebb c239 bcbd
00000150: 5be6 36bd c4fe 583b 4a38 533c 010a 31bc
00000160: fe6c 1a3e 426f e4bd 9fdd 29be 492b 4ebd
00000170: 265e f6bd 62ed 65be 586b a1bd f06f 7dbc
00000180: 3041 84bd 8dd1 203e 9f99 e73d a08d ecbd
00000190: d069 2ebe 69fe a53d 6ecb d6bd d79f bd3d
000001a0: 4628 24bd 5848 173e 3de0 773c ca1f 3dbe
000001b0: f747 32be dddb 89bd 5678 853d 4675 0bbe
000001c0: 656f bdbd daa3 163e f8d9 c5bd 99d0 183e
000001d0: a79b 8bbd 8e57 233d cb44 513e 0249 5ebd
000001e0: 1fd3 a4bd 3095 4cbc 72bf 073d 772c f93c
000001f0: 0cca 04bd 1ef9 ac3c 62d6 653d 982b 15be
00000200: a81d 1ebd 06e5 a53d 1f00 f9bd e866 31be
00000210: f814 fabb f99a 0f3d a5c8 4ebe 08fc d83d
00000220: e0a3 1c3e 36e8 42be 8eaf 5bbd a22c cebd
00000230: a021 533d 99ee 30bd 8c4a c73d 58bb cabc
00000240: 0558 c23b 1be0 9dbd 87ba 63be 7ea2 693c
00000250: db48 313e 2480 ce3d 321a f23d 2859 11be
00000260: 46be a1bb 1d28 ab3c cbde 3bbd f6fe c43d
00000270: 330e 68be a1f3 d1bd a8dc 3a3e 49c5 38be
00000280: f255 06be d9b1 503d d39b 00bd 1521 90bd
00000290: e626 1cbd 7ad3 343e 0d33 083e bca6 143e
000002a0: 6218 133d c918 14be 6343 fd3d 612c 63be
000002b0: 5a0e 523d 36d8 4b3d 6c94 673e d694 f7bc
000002c0: ad96 0fbe 7a28 1abe 0c1a 5fbd f299 393e
000002d0: c6f7 28be 6d27 84bd 8389 1ebd 0b75 833d
000002e0: d95a 1dbd 7b2d 913d 2ce0 37be 1c9c a2bd
000002f0: 6126 533d aa6a 16be 187c 1f3d 14a1 2bbe
00000300: a56f 27be fea4 a1bb 8bc6 483e a8f3 babc
00000310: 1276 ae3d 3620 533d ebbb 013e 3013 383e
00000320: 3499 87bd 9911 75bb 8193 a5bc e48c 2fbd
00000330: d5fa 113d 0272 bc3d 084a 10be b99e 03be
00000340: 3bdd 75bc 56da 16be 80d5 843d 29af e9bc
00000350: 9def 523e 7e79 b83d 1e45 a1bd 9f59 d93c
00000360: ffbd 09be 3985 2f3e 8948 0f3d 3930 2dbd
00000370: 595e d73d 45dc 85bd ee85 02be 1d24 753d
00000380: a4b1 d4bd f2a5 383d ddfb d33c b736 63be
00000390: 5f95 09bd fd6c 6e3e e6da 523e 7811 47be
000003a0: 430b 133d 3fdf 193e 5044 053e a353 7a3e
000003b0: 2e81 b2bd da2c 0fbe e8a0 98bb 84dc 923d
000003c0: 63ec 51bc 9633 a9bc df6a bbbc 1994 49bd
000003d0: 33d5 933d 75ed 7bbd 9cf6 073e 488e 683d
000003e0: bd39 39be a272 0c3e ad03 b7bc c04f fdbd
000003f0: ace0 ff3d 4519 ff3d 369a 06be cb55 3dbe

StatefulPartitionedCall/sequential_1/dense_1_2/BiasAdd/ReadVariableOp:0 f4 [64]
0.05596489 0.015178429 0.030303724 -0.0093897935 0.013064816 -0.030556966 0.017185269 0.015870212
-0.06266194 -0.00944678 0.014919215 0.031515673 -0.041357826 -0.002926179 -0.05198045 -0.008467333
-0.0073058815 0.047987808 -0.009318485 -0.013652105 -0.007744667 0.032209523 -0.049836382 0.028085403
0.017288903 0.07937725 0.01440047 -0.07906056 0.025047725 0.033960775 0.030460533 0.022023894
-0.0727927 0.010436414 -0.024318196 0.07981082 -0.033966836 0.02205377 -0.025819749 0.012598158
0.00092394423 0.029460391 0.035540756 0.03890092 0.00318676 -0.07046103 0.011159098 0.039983884
0.04415003 0.058075875 -0.02526803 0.057402305 -0.03799272 0.020920519 0.004133161 0.01317213
-0.06277239 -0.030717432 -0.018354896 0.04567008 0.006732685 0.019701807 -0.0015215307 -0.008429834
00000000: 713b 653d f2ae 783c 843f f83c a6d7 19bc
00000010: cf0d 563c 9a52 fabc 1fc8 8c3c 3f02 823c
00000020: e754 80bd abc6 1abc b96f 743c 9416 013d
00000030: d366 29bd 23c5 3fbb 74e9 54bd 92ba 0abc
00000040: 2d66 efbb dd8e 443d 8fac 18bc 14ad 5fbc
00000050: fac6 fdbb 22ee 033d 3c21 4cbd 5c13 e63c
00000060: 75a1 8d3c 8a90 a23d f3ef 6b3c 81ea a1bd
00000070: e330 cd3c 741a 0b3d 5e88 f93c 746b b43c
00000080: 5714 95bd 7efd 2a3c f436 c7bc db73 a33d
00000090: cf20 0bbd 1caa b43c f083 d3bc 8168 4e3c
000000a0: d934 723a eb56 f13c 2f93 113d 9256 1f3d
000000b0: f6d8 503b df4d 90bd a6d4 363c 24c6 233d
000000c0: a9d6 343d f8e0 6d3d e6fe cebc ae1e 6b3d
000000d0: 419e 1bbd 8261 ab3c 786f 873b ebcf 573c
000000e0: d08e 80bd 20a3 fbbc 025d 96bc 8d10 3b3d
000000f0: db9d dc3b af65 a13c 196e c7ba 491d 0abc

StatefulPartitionedCall/sequential_1/dense_1/Cast/ReadVariableOp:0 f4 [170, 128]
-0.12600955 0.11667378 -0.08312487 -0.102272816 -0.10956302 -0.12953746 -0.08602141 -0.06801008
-0.0535732 0.119913705 -0.114434995 -0.042030763 -0.060669243 -0.079831496 -0.16178031 0.024187073
0.05253769 0.050229587 0.114619665 -0.019494051 0.06401766 -0.050413076 0.006401702 -0.0029031108
-0.035565127 -0.027204003 0.102206446 0.019896325 -0.05426244 0.102902874 -0.101046085 -0.061409194
0.07709986 -0.004983959 -0.03756729 -0.18953872 0.06718966 0.0127980895 -0.015360393 0.16807757
0.10009411 -0.19412039 0.113628894 -0.020175308 -0.122157745 0.025634667 0.048641037 -0.027291963
0.0840512 -0.103744596 -0.05994015 0.107249096 0.11614737 0.17703457 0.106030606 0.043263838
0.061840806 0.19561246 0.1500679 -0.009354508 -0.036657773 0.014577138 -0.009623974 -0.013539663
0.15414675 0.10294405 0.1400133 -0.006192055 0.0947666 0.036786944 0.053894624 -0.070327535
-0.038697623 -0.08936589 -0.0930242 -0.1503516 -0.07328563 -0.056624293 0.04784393 0.0019238724
0.12558526 0.15481403 0.054799702 0.15545326 -0.086315386 0.0053047547 -0.101098225 0.06405177
0.012958452 -0.11814629 -0.14908786 -0.09845406 -0.114372276 0.060827788 -0.0021761446 0.18484682
0.08483201 0.12284514 0.09353492 -0.17651138 0.13674907 0.0022550717 -0.044290487 0.008111243
0.13417083 -0.06297935 0.2003804 -0.021917047 0.17114942 0.031345982 -0.104473606 -0.1196122
0.0683933 0.15460393 -0.11740391 0.06452295 0.09134932 -0.055827875 -0.10968664 -0.13871856
-0.0827118 0.0759967 -0.07188237 -0.0011476211 0.08577306 0.05024607 -0.12009079 -0.029553005
-0.20664017 -0.10317318 0.09734257 -0.111675926 -0.16663027 0.0033782271 0.0737983 0.039677624
0.06998785 0.108644575 0.061629266 0.0015111738 -0.14079088 0.10385525 -0.16449587 -0.06175411
0.08955392 -0.053550214 0.119714014 -0.10734084 -0.12916686 0.01132431 -0.017573303 0.11035048
0.05640694 -0.09205568 0.07052978 0.095343664 -0.11907618 0.022900535 -0.04122457 0.13828802
0.051254623 0.021381265 0.13553403 -0.030378701 -0.1455086 -0.0899477 0.040993 -0.113134034
-0.13154665 0.087735854 -0.03572847 0.08682268 0.057599418 -0.11793331 -0.0043525686 0.0071221013
-0.0246665 0.016029526 -0.0942319 0.0011078041 -0.14923337 -0.1146254 -0.043082472 -0.10364827
-0.019019192 0.05906054 0.11632357 0.01880797 -0.15827088 0.1515552 -0.032763477 -0.10638074
-0.012690946 -0.053770497 -0.007883416 -0.04610198 -0.18004586 -0.1109937 -0.00497265 -0.10608579
-0.021214178 -0.1647548 -0.042375077 -0.19116423 0.007331736 0.1725541 -0.044151705 0.028445622
0.06579082 0.1555731 0.10100618 -0.049457423 0.22031102 0.11970083 0.117235325 -0.02332283
-0.043167382 0.0846747 -0.09385352 0.050452255 -0.06966055 0.007754634 0.059368435 -0.0070802653
-0.10562207 0.035441224 0.04964141 -0.18804288 0.0006764892 0.060399234 0.08835947 0.115562014
-0.14345299 0.037174974 -0.09337925 -0.056474954 0.07895982 0.07043451 0.105727926 0.13796164
-0.05763711 -0.011078907 -0.107561484 0.12325789 0.008153399 0.14189312 -0.07084782 -0.039538287
0.055512946 -0.040155943 -0.048920725 0.038173113 -0.024316547 0.18390198 -0.022379922 0.06950985
00000000: a608 01be aaf2 ee3d 5f3d aabd 6974 d1bd
00000010: 9462 e0bd 78a5 04be fe2b b0bd de48 8bbd
00000020: 926f 5bbd 5195 f53d e55c eabd 7328 2cbd
00000030: 5080 78bd b27e a3bd bda9 25be f823 c63c
00000040: c331 573d 8abd 4d3d b7bd ea3d fdb1 9fbc
00000050: b11b 833d f17d 4ebd 5ec5 d13b 1e42 3ebb
00000060: bdac 11bd eeda debc 9d51 d13d 9efd a23c
00000070: 4b42 5ebd bebe d23d 40f1 cebd 3588 7bbd
00000080: 88e6 9d3d 7a50 a3bb 29e0 19bd 7016 42be
00000090: bc9a 893d 14af 513c 28aa 7bbc 871c 2c3e
000000a0: 24fe cc3d 7fc7 46be 44b6 e83d b046 a5bc
000000b0: d72d fabd cbff d13c d33b 473d 6593 dfbc
000000c0: 0923 ac3d 0c78 d4bd cd83 75bd 6aa5 db3d
000000d0: acde ed3d 8d48 353e 9326 d93d 6c35 313d
000000e0: c94c 7d3d a24e 483e 66ab 193e a643 19bc
000000f0: 7626 16bd f3d4 6e3c dfad 1dbc 76d5 5dbc
00000100: a5d8 1d3e 55d4 d23d a65f 0f3e b9e6 cabb
00000110: fe14 c23d e8ad 163d 9cc0 5c3d e207 90bd
00000120: 6681 1ebd 7705 b7bd 7983 bebd c5f5 19be
00000130: c716 96bd e0ee 67bd fff7 433d 722a fc3a
00000140: 6c99 003e 9287 1e3e a775 603d 242f 1f3e
00000150: 1fc6 b0bd 82d3 ad3b 960c cfbd 932d 833d
00000160: b04f 543c aff6 f1bd 7daa 18be 48a2 c9bd
00000170: 033c eabd 8f26 793d a69d 0ebb 7c48 3d3e
00000180: 68bc ad3d 3c96 fb3d 3c8f bf3d 66bf 34be
00000190: f307 0c3e d3c9 133b f169 35bd 05e5 043c
000001a0: 1464 093e 51fb 80bd 8530 4d3e 618b b3bc
000001b0: cb41 2f3e a564 003d 42f6 d5bd 3ef7 f4bd
000001c0: c911 8c3d 7e50 1e3e 7671 f0bd 9c24 843d
000001d0: 5a15 bb3d c5ab 64bd 64a3 e0bd 3d0c 0ebe
000001e0: ce64 a9bd 28a4 9b3d 1037 93bd c66b 96ba
000001f0: c9a9 af3d d3ce 4d3d 29f2 f5bd 2519 f2bc
00000200: 7b99 53be 764c d3bd 8b5b c73d 59b6 e4bd
00000210: 20a1 2abe 3f65 5d3b 9023 973d 0185 223d
00000220: ca55 8f3d 0c81 de3d f86e 7c3d 9412 c63a
00000230: 7c2b 10be 10b2 d43d 9b71 28be e1f1 7cbd
00000240: 0c68 b73d 7857 5bbd 9f2c f53d 84d5 dbbd
00000250: 5144 04be 9989 393c e3f5 8fbc 6fff e13d
00000260: f70a 673d b087 bcbd eb71 903d 8a43 c33d
00000270: 36de f3bd e799 bb3c 18db 28bd 609b 0d3e
00000280: 5ef0 513d c327 af3c 6fc9 0a3e c1dc f8bc
00000290: 3500 15be 8036 b8bd 47e8 273d d1b2 e7bd
000002a0: 2ab4 06be dbae b33d 0458 12bd 17d0 b13d
000002b0: 5eed 6b3d 0587 f1bd fe9f 8ebb 8460 e93b
000002c0: 6611 cabc 5a50 833c a8fc c0bd bd33 913a
000002d0: a2d0 18be b9c0 eabd 3f77 30bd 8b45 d4bd
000002e0: 23ce 9bbc 77e9 713d 0d3b ee3d 2c13 9a3c
000002f0: c311 22be 4931 1b3e ff32 06bd 25de d9bd
00000300: b0ed 4fbc 743e 5cbd 7129 01bc 6ed5 3cbd
00000310: f15d 38be aa50 e3bd 9df1 a2bb 8243 d9bd
00000320: 5bc9 adbc 7bb5 28be 7d91 2dbd 8ec0 43be
00000330: 0f3f f03b 06b2 303e 6bd8 34bd cb06 e93c
00000340: 56bd 863d 8e4e 1f3e 54dc ce3d de93 4abd
00000350: 3699 613e b525 f53d 1319 f03d 850f bfbc
00000360: 48d0 30bd ee69 ad3d 4636 c0bd 06a7 4e3d
00000370: 31aa 8ebd 961a fe3b 512c 733d 9201 e8bb
00000380: 6250 d8bd d12a 113d cb54 4b3d 508e 40be
00000390: 6c56 313a 3065 773d cff5 b43d c7ab ec3d
000003a0: 57e5 12be c944 183d 9f3d bfbd 4852 67bd
000003b0: b0b5 a13d f83f 903d e287 d83d d145 0d3e
000003c0: e414 6cbd 4e84 35bc 3249 dcbd a26e fc3d
000003d0: d695 053c 6e4c 113e a918 91bd e6f2 21bd
000003e0: 8b61 633d 8f7a 24bd 1961 48bd 695b 1c3d
000003f0: 7f33 c7bc cd50 3c3e 1956 b7bc 2e5b 8e3d

StatefulPartitionedCall/sequential_1/dense_1/BiasAdd/ReadVariableOp:0 f4 [128]
-0.015150092 -0.09683104 -0.025044907 -0.048161093 -0.01748251 0.011559409 -0.055749267 -0.08920472
-0.035672072 -0.09938324 0.0026448423 -0.04135748 0.010238349 -0.081466936 -0.032039896 0.029743358
-0.079176754 -0.08882692 -0.027916957 0.0042367866 -0.055257976 -0.028854975 -0.08165834 -0.09540202
-0.04315118 -0.0918575 -0.08711683 -0.040453102 -0.035367467 -0.08026314 -0.016132152 0.020247586
0.029337818 -0.008610126 -0.07531869 -0.08200465 -0.030135643 -0.07843171 -0.079409234 -0.0764799
-0.10572647 -0.013899963 -0.109638184 -0.017587528 -0.025049172 0.009318797 -0.051391676 -0.04981246
-0.06537024 0.049404867 -0.07818989 0.009514216 -0.019093143 0.00781753 -0.052742265 -0.13249311
-0.0062773568 -0.004365044 -0.07894743 -0.07682569 0.0043197577 -0.031104842 -0.045186084 -0.0012701338
-0.05407133 -0.041512884 -0.029278724 -0.09179725 0.0021966144 0.008098761 -0.04233074 -0.045456246
-0.08516033 -0.049857393 -0.11063897 0.036952652 -0.08391291 -0.062068798 -0.0036025376 -0.016577326
-0.051398583 -0.071178906 -0.040965423 -0.119675204 -0.02050357 -0.05011463 -0.010580107 0.007688894
-0.10515323 -0.03275666 -0.044096377 -0.09240183 -0.06614111 -0.07905342 -0.09224237 -0.025169693
-0.059923265 -0.10727345 -0.035295323 -0.0059342985 -0.07898369 -0.034459908 -0.059226546 -0.062013417
0.0028071043 -0.061155953 -0.06681475 -0.028106565 -0.069103375 -0.095144674 -0.08039258 -0.004290895
-0.07588363 -0.06298848 -0.026080254 -0.01387274 -0.05094362 -0.10286889 -0.033863798 -0.0052256864
-0.036798965 -0.052940633 -0.062101632 -0.023525206 -0.050862465 -0.11117699 -0.023391772 -0.014635298
00000000: 1738 78bc 5a4f c6bd fa2a cdbc 9144 45bd
00000010: 7b37 8fbc ad63 3d3c 5859 64bd f7b0 b6bd
00000020: e11c 12bd 7189 cbbd 1755 2d3b 7666 29bd
00000030: c0be 273c 23d8 a6bd 443c 03bd 58a8 f33c
00000040: 6c27 a2bd e3ea b5bd 1ab2 e4bc bed4 8a3b
00000050: 3056 62bd 4561 ecbc 7d3c a7bd 2262 c3bd
00000060: 4bbf 30bd c91f bcbd 4f6a b2bd 27b2 25bd
00000070: 7add 10bd 0061 a4bd 9327 84bc 44de a53c
00000080: dd55 f03c 7c11 0dbc af40 9abd 0ef2 a7bd
00000090: 06df f6bc cea0 a0bd 4fa1 a2bd 7ea1 9cbd
000000a0: 1f87 d8bd acbc 63bc fc89 e0bd b813 90bc
000000b0: ec33 cdbc dead 183c 1480 52bd 2608 4cbd
000000c0: d5e0 85bd c25c 4a3d 0522 a0bd 84e1 1b3c
000000d0: 3969 9cbc 1915 003c 4608 58bd 46ac 07be
000000e0: 49b2 cdbb a508 8fbb 31af a1bd ca56 9dbd
000000f0: c18c 8d3b 95cf febc 0b15 39bd 9e7a a6ba
00000100: e679 5dbd 6a09 2abd efd9 efbc 3200 bcbd
00000110: 13f5 0f3b aab0 043c ff62 2dbd 5430 3abd
00000120: 8a68 aebd 4437 4cbd af96 e2bd aa5b 173d
00000130: 88da abbd da3b 7ebd 8d18 6cbb 2ccd 87bc
00000140: 5287 52bd 3fc6 91bd 5ccb 27bd 4618 f5bd
00000150: 1af7 a7bc 0045 4dbd 2f58 2dbc 1ef3 fb3b
00000160: 945a d7bd d92b 06bd 679e 34bd 2c3d bdbd
00000170: fe74 87bd c2e6 a1bd 91e9 bcbd ac30 cebc
00000180: 1972 75bd 2fb2 dbbd d491 10bd 8174 c2bb
00000190: 33c2 a1bd d525 0dbd 8997 72bd c801 7ebd
000001a0: 65f7 373b aa7e 7abd 2cd6 88bd bd3f e6bc
000001b0: 1286 8dbd 36db c2bd dda4 a4bd a39a 8cbb
000001c0: e068 9bbd 1b00 81bd 42a6 d5bc 7d4a 63bc
000001d0: 42aa 50bd edac d2bd c4b4 0abd 3c3c abbb
000001e0: 83ba 16bd 47d8 58bd 485e 7ebd efb7 c0bc
000001f0: 2955 50bd c3b0 e3bd 1aa0 bfbc e4c8 6fbc
